nohup: ignoring input
Selected GPUs: [2, 3]
Training Log Directory: /nas/home/yixiaoli/results_log/com2sense/t5_large/./numeracy/bs_16_without_prompt

Train: 1608 
Validation: 804

Validation Accuracy is computed using 804 samples. See --val_size
No. of Classes: 3

======The model is like======

Transformer(
  (softmax): Softmax(dim=1)
  (model): T5ForConditionalGeneration(
    (shared): Embedding(32128, 1024)
    (encoder): T5Stack(
      (embed_tokens): Embedding(32128, 1024)
      (block): ModuleList(
        (0): T5Block(
          (layer): ModuleList(
            (0): T5LayerSelfAttention(
              (SelfAttention): T5Attention(
                (q): Linear(in_features=1024, out_features=1024, bias=False)
                (k): Linear(in_features=1024, out_features=1024, bias=False)
                (v): Linear(in_features=1024, out_features=1024, bias=False)
                (o): Linear(in_features=1024, out_features=1024, bias=False)
                (relative_attention_bias): Embedding(32, 16)
              )
              (layer_norm): T5LayerNorm()
              (dropout): Dropout(p=0.1, inplace=False)
            )
            (1): T5LayerFF(
              (DenseReluDense): T5DenseReluDense(
                (wi): Linear(in_features=1024, out_features=4096, bias=False)
                (wo): Linear(in_features=4096, out_features=1024, bias=False)
                (dropout): Dropout(p=0.1, inplace=False)
              )
              (layer_norm): T5LayerNorm()
              (dropout): Dropout(p=0.1, inplace=False)
            )
          )
        )
        (1): T5Block(
          (layer): ModuleList(
            (0): T5LayerSelfAttention(
              (SelfAttention): T5Attention(
                (q): Linear(in_features=1024, out_features=1024, bias=False)
                (k): Linear(in_features=1024, out_features=1024, bias=False)
                (v): Linear(in_features=1024, out_features=1024, bias=False)
                (o): Linear(in_features=1024, out_features=1024, bias=False)
              )
              (layer_norm): T5LayerNorm()
              (dropout): Dropout(p=0.1, inplace=False)
            )
            (1): T5LayerFF(
              (DenseReluDense): T5DenseReluDense(
                (wi): Linear(in_features=1024, out_features=4096, bias=False)
                (wo): Linear(in_features=4096, out_features=1024, bias=False)
                (dropout): Dropout(p=0.1, inplace=False)
              )
              (layer_norm): T5LayerNorm()
              (dropout): Dropout(p=0.1, inplace=False)
            )
          )
        )
        (2): T5Block(
          (layer): ModuleList(
            (0): T5LayerSelfAttention(
              (SelfAttention): T5Attention(
                (q): Linear(in_features=1024, out_features=1024, bias=False)
                (k): Linear(in_features=1024, out_features=1024, bias=False)
                (v): Linear(in_features=1024, out_features=1024, bias=False)
                (o): Linear(in_features=1024, out_features=1024, bias=False)
              )
              (layer_norm): T5LayerNorm()
              (dropout): Dropout(p=0.1, inplace=False)
            )
            (1): T5LayerFF(
              (DenseReluDense): T5DenseReluDense(
                (wi): Linear(in_features=1024, out_features=4096, bias=False)
                (wo): Linear(in_features=4096, out_features=1024, bias=False)
                (dropout): Dropout(p=0.1, inplace=False)
              )
              (layer_norm): T5LayerNorm()
              (dropout): Dropout(p=0.1, inplace=False)
            )
          )
        )
        (3): T5Block(
          (layer): ModuleList(
            (0): T5LayerSelfAttention(
              (SelfAttention): T5Attention(
                (q): Linear(in_features=1024, out_features=1024, bias=False)
                (k): Linear(in_features=1024, out_features=1024, bias=False)
                (v): Linear(in_features=1024, out_features=1024, bias=False)
                (o): Linear(in_features=1024, out_features=1024, bias=False)
              )
              (layer_norm): T5LayerNorm()
              (dropout): Dropout(p=0.1, inplace=False)
            )
            (1): T5LayerFF(
              (DenseReluDense): T5DenseReluDense(
                (wi): Linear(in_features=1024, out_features=4096, bias=False)
                (wo): Linear(in_features=4096, out_features=1024, bias=False)
                (dropout): Dropout(p=0.1, inplace=False)
              )
              (layer_norm): T5LayerNorm()
              (dropout): Dropout(p=0.1, inplace=False)
            )
          )
        )
        (4): T5Block(
          (layer): ModuleList(
            (0): T5LayerSelfAttention(
              (SelfAttention): T5Attention(
                (q): Linear(in_features=1024, out_features=1024, bias=False)
                (k): Linear(in_features=1024, out_features=1024, bias=False)
                (v): Linear(in_features=1024, out_features=1024, bias=False)
                (o): Linear(in_features=1024, out_features=1024, bias=False)
              )
              (layer_norm): T5LayerNorm()
              (dropout): Dropout(p=0.1, inplace=False)
            )
            (1): T5LayerFF(
              (DenseReluDense): T5DenseReluDense(
                (wi): Linear(in_features=1024, out_features=4096, bias=False)
                (wo): Linear(in_features=4096, out_features=1024, bias=False)
                (dropout): Dropout(p=0.1, inplace=False)
              )
              (layer_norm): T5LayerNorm()
              (dropout): Dropout(p=0.1, inplace=False)
            )
          )
        )
        (5): T5Block(
          (layer): ModuleList(
            (0): T5LayerSelfAttention(
              (SelfAttention): T5Attention(
                (q): Linear(in_features=1024, out_features=1024, bias=False)
                (k): Linear(in_features=1024, out_features=1024, bias=False)
                (v): Linear(in_features=1024, out_features=1024, bias=False)
                (o): Linear(in_features=1024, out_features=1024, bias=False)
              )
              (layer_norm): T5LayerNorm()
              (dropout): Dropout(p=0.1, inplace=False)
            )
            (1): T5LayerFF(
              (DenseReluDense): T5DenseReluDense(
                (wi): Linear(in_features=1024, out_features=4096, bias=False)
                (wo): Linear(in_features=4096, out_features=1024, bias=False)
                (dropout): Dropout(p=0.1, inplace=False)
              )
              (layer_norm): T5LayerNorm()
              (dropout): Dropout(p=0.1, inplace=False)
            )
          )
        )
        (6): T5Block(
          (layer): ModuleList(
            (0): T5LayerSelfAttention(
              (SelfAttention): T5Attention(
                (q): Linear(in_features=1024, out_features=1024, bias=False)
                (k): Linear(in_features=1024, out_features=1024, bias=False)
                (v): Linear(in_features=1024, out_features=1024, bias=False)
                (o): Linear(in_features=1024, out_features=1024, bias=False)
              )
              (layer_norm): T5LayerNorm()
              (dropout): Dropout(p=0.1, inplace=False)
            )
            (1): T5LayerFF(
              (DenseReluDense): T5DenseReluDense(
                (wi): Linear(in_features=1024, out_features=4096, bias=False)
                (wo): Linear(in_features=4096, out_features=1024, bias=False)
                (dropout): Dropout(p=0.1, inplace=False)
              )
              (layer_norm): T5LayerNorm()
              (dropout): Dropout(p=0.1, inplace=False)
            )
          )
        )
        (7): T5Block(
          (layer): ModuleList(
            (0): T5LayerSelfAttention(
              (SelfAttention): T5Attention(
                (q): Linear(in_features=1024, out_features=1024, bias=False)
                (k): Linear(in_features=1024, out_features=1024, bias=False)
                (v): Linear(in_features=1024, out_features=1024, bias=False)
                (o): Linear(in_features=1024, out_features=1024, bias=False)
              )
              (layer_norm): T5LayerNorm()
              (dropout): Dropout(p=0.1, inplace=False)
            )
            (1): T5LayerFF(
              (DenseReluDense): T5DenseReluDense(
                (wi): Linear(in_features=1024, out_features=4096, bias=False)
                (wo): Linear(in_features=4096, out_features=1024, bias=False)
                (dropout): Dropout(p=0.1, inplace=False)
              )
              (layer_norm): T5LayerNorm()
              (dropout): Dropout(p=0.1, inplace=False)
            )
          )
        )
        (8): T5Block(
          (layer): ModuleList(
            (0): T5LayerSelfAttention(
              (SelfAttention): T5Attention(
                (q): Linear(in_features=1024, out_features=1024, bias=False)
                (k): Linear(in_features=1024, out_features=1024, bias=False)
                (v): Linear(in_features=1024, out_features=1024, bias=False)
                (o): Linear(in_features=1024, out_features=1024, bias=False)
              )
              (layer_norm): T5LayerNorm()
              (dropout): Dropout(p=0.1, inplace=False)
            )
            (1): T5LayerFF(
              (DenseReluDense): T5DenseReluDense(
                (wi): Linear(in_features=1024, out_features=4096, bias=False)
                (wo): Linear(in_features=4096, out_features=1024, bias=False)
                (dropout): Dropout(p=0.1, inplace=False)
              )
              (layer_norm): T5LayerNorm()
              (dropout): Dropout(p=0.1, inplace=False)
            )
          )
        )
        (9): T5Block(
          (layer): ModuleList(
            (0): T5LayerSelfAttention(
              (SelfAttention): T5Attention(
                (q): Linear(in_features=1024, out_features=1024, bias=False)
                (k): Linear(in_features=1024, out_features=1024, bias=False)
                (v): Linear(in_features=1024, out_features=1024, bias=False)
                (o): Linear(in_features=1024, out_features=1024, bias=False)
              )
              (layer_norm): T5LayerNorm()
              (dropout): Dropout(p=0.1, inplace=False)
            )
            (1): T5LayerFF(
              (DenseReluDense): T5DenseReluDense(
                (wi): Linear(in_features=1024, out_features=4096, bias=False)
                (wo): Linear(in_features=4096, out_features=1024, bias=False)
                (dropout): Dropout(p=0.1, inplace=False)
              )
              (layer_norm): T5LayerNorm()
              (dropout): Dropout(p=0.1, inplace=False)
            )
          )
        )
        (10): T5Block(
          (layer): ModuleList(
            (0): T5LayerSelfAttention(
              (SelfAttention): T5Attention(
                (q): Linear(in_features=1024, out_features=1024, bias=False)
                (k): Linear(in_features=1024, out_features=1024, bias=False)
                (v): Linear(in_features=1024, out_features=1024, bias=False)
                (o): Linear(in_features=1024, out_features=1024, bias=False)
              )
              (layer_norm): T5LayerNorm()
              (dropout): Dropout(p=0.1, inplace=False)
            )
            (1): T5LayerFF(
              (DenseReluDense): T5DenseReluDense(
                (wi): Linear(in_features=1024, out_features=4096, bias=False)
                (wo): Linear(in_features=4096, out_features=1024, bias=False)
                (dropout): Dropout(p=0.1, inplace=False)
              )
              (layer_norm): T5LayerNorm()
              (dropout): Dropout(p=0.1, inplace=False)
            )
          )
        )
        (11): T5Block(
          (layer): ModuleList(
            (0): T5LayerSelfAttention(
              (SelfAttention): T5Attention(
                (q): Linear(in_features=1024, out_features=1024, bias=False)
                (k): Linear(in_features=1024, out_features=1024, bias=False)
                (v): Linear(in_features=1024, out_features=1024, bias=False)
                (o): Linear(in_features=1024, out_features=1024, bias=False)
              )
              (layer_norm): T5LayerNorm()
              (dropout): Dropout(p=0.1, inplace=False)
            )
            (1): T5LayerFF(
              (DenseReluDense): T5DenseReluDense(
                (wi): Linear(in_features=1024, out_features=4096, bias=False)
                (wo): Linear(in_features=4096, out_features=1024, bias=False)
                (dropout): Dropout(p=0.1, inplace=False)
              )
              (layer_norm): T5LayerNorm()
              (dropout): Dropout(p=0.1, inplace=False)
            )
          )
        )
        (12): T5Block(
          (layer): ModuleList(
            (0): T5LayerSelfAttention(
              (SelfAttention): T5Attention(
                (q): Linear(in_features=1024, out_features=1024, bias=False)
                (k): Linear(in_features=1024, out_features=1024, bias=False)
                (v): Linear(in_features=1024, out_features=1024, bias=False)
                (o): Linear(in_features=1024, out_features=1024, bias=False)
              )
              (layer_norm): T5LayerNorm()
              (dropout): Dropout(p=0.1, inplace=False)
            )
            (1): T5LayerFF(
              (DenseReluDense): T5DenseReluDense(
                (wi): Linear(in_features=1024, out_features=4096, bias=False)
                (wo): Linear(in_features=4096, out_features=1024, bias=False)
                (dropout): Dropout(p=0.1, inplace=False)
              )
              (layer_norm): T5LayerNorm()
              (dropout): Dropout(p=0.1, inplace=False)
            )
          )
        )
        (13): T5Block(
          (layer): ModuleList(
            (0): T5LayerSelfAttention(
              (SelfAttention): T5Attention(
                (q): Linear(in_features=1024, out_features=1024, bias=False)
                (k): Linear(in_features=1024, out_features=1024, bias=False)
                (v): Linear(in_features=1024, out_features=1024, bias=False)
                (o): Linear(in_features=1024, out_features=1024, bias=False)
              )
              (layer_norm): T5LayerNorm()
              (dropout): Dropout(p=0.1, inplace=False)
            )
            (1): T5LayerFF(
              (DenseReluDense): T5DenseReluDense(
                (wi): Linear(in_features=1024, out_features=4096, bias=False)
                (wo): Linear(in_features=4096, out_features=1024, bias=False)
                (dropout): Dropout(p=0.1, inplace=False)
              )
              (layer_norm): T5LayerNorm()
              (dropout): Dropout(p=0.1, inplace=False)
            )
          )
        )
        (14): T5Block(
          (layer): ModuleList(
            (0): T5LayerSelfAttention(
              (SelfAttention): T5Attention(
                (q): Linear(in_features=1024, out_features=1024, bias=False)
                (k): Linear(in_features=1024, out_features=1024, bias=False)
                (v): Linear(in_features=1024, out_features=1024, bias=False)
                (o): Linear(in_features=1024, out_features=1024, bias=False)
              )
              (layer_norm): T5LayerNorm()
              (dropout): Dropout(p=0.1, inplace=False)
            )
            (1): T5LayerFF(
              (DenseReluDense): T5DenseReluDense(
                (wi): Linear(in_features=1024, out_features=4096, bias=False)
                (wo): Linear(in_features=4096, out_features=1024, bias=False)
                (dropout): Dropout(p=0.1, inplace=False)
              )
              (layer_norm): T5LayerNorm()
              (dropout): Dropout(p=0.1, inplace=False)
            )
          )
        )
        (15): T5Block(
          (layer): ModuleList(
            (0): T5LayerSelfAttention(
              (SelfAttention): T5Attention(
                (q): Linear(in_features=1024, out_features=1024, bias=False)
                (k): Linear(in_features=1024, out_features=1024, bias=False)
                (v): Linear(in_features=1024, out_features=1024, bias=False)
                (o): Linear(in_features=1024, out_features=1024, bias=False)
              )
              (layer_norm): T5LayerNorm()
              (dropout): Dropout(p=0.1, inplace=False)
            )
            (1): T5LayerFF(
              (DenseReluDense): T5DenseReluDense(
                (wi): Linear(in_features=1024, out_features=4096, bias=False)
                (wo): Linear(in_features=4096, out_features=1024, bias=False)
                (dropout): Dropout(p=0.1, inplace=False)
              )
              (layer_norm): T5LayerNorm()
              (dropout): Dropout(p=0.1, inplace=False)
            )
          )
        )
        (16): T5Block(
          (layer): ModuleList(
            (0): T5LayerSelfAttention(
              (SelfAttention): T5Attention(
                (q): Linear(in_features=1024, out_features=1024, bias=False)
                (k): Linear(in_features=1024, out_features=1024, bias=False)
                (v): Linear(in_features=1024, out_features=1024, bias=False)
                (o): Linear(in_features=1024, out_features=1024, bias=False)
              )
              (layer_norm): T5LayerNorm()
              (dropout): Dropout(p=0.1, inplace=False)
            )
            (1): T5LayerFF(
              (DenseReluDense): T5DenseReluDense(
                (wi): Linear(in_features=1024, out_features=4096, bias=False)
                (wo): Linear(in_features=4096, out_features=1024, bias=False)
                (dropout): Dropout(p=0.1, inplace=False)
              )
              (layer_norm): T5LayerNorm()
              (dropout): Dropout(p=0.1, inplace=False)
            )
          )
        )
        (17): T5Block(
          (layer): ModuleList(
            (0): T5LayerSelfAttention(
              (SelfAttention): T5Attention(
                (q): Linear(in_features=1024, out_features=1024, bias=False)
                (k): Linear(in_features=1024, out_features=1024, bias=False)
                (v): Linear(in_features=1024, out_features=1024, bias=False)
                (o): Linear(in_features=1024, out_features=1024, bias=False)
              )
              (layer_norm): T5LayerNorm()
              (dropout): Dropout(p=0.1, inplace=False)
            )
            (1): T5LayerFF(
              (DenseReluDense): T5DenseReluDense(
                (wi): Linear(in_features=1024, out_features=4096, bias=False)
                (wo): Linear(in_features=4096, out_features=1024, bias=False)
                (dropout): Dropout(p=0.1, inplace=False)
              )
              (layer_norm): T5LayerNorm()
              (dropout): Dropout(p=0.1, inplace=False)
            )
          )
        )
        (18): T5Block(
          (layer): ModuleList(
            (0): T5LayerSelfAttention(
              (SelfAttention): T5Attention(
                (q): Linear(in_features=1024, out_features=1024, bias=False)
                (k): Linear(in_features=1024, out_features=1024, bias=False)
                (v): Linear(in_features=1024, out_features=1024, bias=False)
                (o): Linear(in_features=1024, out_features=1024, bias=False)
              )
              (layer_norm): T5LayerNorm()
              (dropout): Dropout(p=0.1, inplace=False)
            )
            (1): T5LayerFF(
              (DenseReluDense): T5DenseReluDense(
                (wi): Linear(in_features=1024, out_features=4096, bias=False)
                (wo): Linear(in_features=4096, out_features=1024, bias=False)
                (dropout): Dropout(p=0.1, inplace=False)
              )
              (layer_norm): T5LayerNorm()
              (dropout): Dropout(p=0.1, inplace=False)
            )
          )
        )
        (19): T5Block(
          (layer): ModuleList(
            (0): T5LayerSelfAttention(
              (SelfAttention): T5Attention(
                (q): Linear(in_features=1024, out_features=1024, bias=False)
                (k): Linear(in_features=1024, out_features=1024, bias=False)
                (v): Linear(in_features=1024, out_features=1024, bias=False)
                (o): Linear(in_features=1024, out_features=1024, bias=False)
              )
              (layer_norm): T5LayerNorm()
              (dropout): Dropout(p=0.1, inplace=False)
            )
            (1): T5LayerFF(
              (DenseReluDense): T5DenseReluDense(
                (wi): Linear(in_features=1024, out_features=4096, bias=False)
                (wo): Linear(in_features=4096, out_features=1024, bias=False)
                (dropout): Dropout(p=0.1, inplace=False)
              )
              (layer_norm): T5LayerNorm()
              (dropout): Dropout(p=0.1, inplace=False)
            )
          )
        )
        (20): T5Block(
          (layer): ModuleList(
            (0): T5LayerSelfAttention(
              (SelfAttention): T5Attention(
                (q): Linear(in_features=1024, out_features=1024, bias=False)
                (k): Linear(in_features=1024, out_features=1024, bias=False)
                (v): Linear(in_features=1024, out_features=1024, bias=False)
                (o): Linear(in_features=1024, out_features=1024, bias=False)
              )
              (layer_norm): T5LayerNorm()
              (dropout): Dropout(p=0.1, inplace=False)
            )
            (1): T5LayerFF(
              (DenseReluDense): T5DenseReluDense(
                (wi): Linear(in_features=1024, out_features=4096, bias=False)
                (wo): Linear(in_features=4096, out_features=1024, bias=False)
                (dropout): Dropout(p=0.1, inplace=False)
              )
              (layer_norm): T5LayerNorm()
              (dropout): Dropout(p=0.1, inplace=False)
            )
          )
        )
        (21): T5Block(
          (layer): ModuleList(
            (0): T5LayerSelfAttention(
              (SelfAttention): T5Attention(
                (q): Linear(in_features=1024, out_features=1024, bias=False)
                (k): Linear(in_features=1024, out_features=1024, bias=False)
                (v): Linear(in_features=1024, out_features=1024, bias=False)
                (o): Linear(in_features=1024, out_features=1024, bias=False)
              )
              (layer_norm): T5LayerNorm()
              (dropout): Dropout(p=0.1, inplace=False)
            )
            (1): T5LayerFF(
              (DenseReluDense): T5DenseReluDense(
                (wi): Linear(in_features=1024, out_features=4096, bias=False)
                (wo): Linear(in_features=4096, out_features=1024, bias=False)
                (dropout): Dropout(p=0.1, inplace=False)
              )
              (layer_norm): T5LayerNorm()
              (dropout): Dropout(p=0.1, inplace=False)
            )
          )
        )
        (22): T5Block(
          (layer): ModuleList(
            (0): T5LayerSelfAttention(
              (SelfAttention): T5Attention(
                (q): Linear(in_features=1024, out_features=1024, bias=False)
                (k): Linear(in_features=1024, out_features=1024, bias=False)
                (v): Linear(in_features=1024, out_features=1024, bias=False)
                (o): Linear(in_features=1024, out_features=1024, bias=False)
              )
              (layer_norm): T5LayerNorm()
              (dropout): Dropout(p=0.1, inplace=False)
            )
            (1): T5LayerFF(
              (DenseReluDense): T5DenseReluDense(
                (wi): Linear(in_features=1024, out_features=4096, bias=False)
                (wo): Linear(in_features=4096, out_features=1024, bias=False)
                (dropout): Dropout(p=0.1, inplace=False)
              )
              (layer_norm): T5LayerNorm()
              (dropout): Dropout(p=0.1, inplace=False)
            )
          )
        )
        (23): T5Block(
          (layer): ModuleList(
            (0): T5LayerSelfAttention(
              (SelfAttention): T5Attention(
                (q): Linear(in_features=1024, out_features=1024, bias=False)
                (k): Linear(in_features=1024, out_features=1024, bias=False)
                (v): Linear(in_features=1024, out_features=1024, bias=False)
                (o): Linear(in_features=1024, out_features=1024, bias=False)
              )
              (layer_norm): T5LayerNorm()
              (dropout): Dropout(p=0.1, inplace=False)
            )
            (1): T5LayerFF(
              (DenseReluDense): T5DenseReluDense(
                (wi): Linear(in_features=1024, out_features=4096, bias=False)
                (wo): Linear(in_features=4096, out_features=1024, bias=False)
                (dropout): Dropout(p=0.1, inplace=False)
              )
              (layer_norm): T5LayerNorm()
              (dropout): Dropout(p=0.1, inplace=False)
            )
          )
        )
      )
      (final_layer_norm): T5LayerNorm()
      (dropout): Dropout(p=0.1, inplace=False)
    )
    (decoder): T5Stack(
      (embed_tokens): Embedding(32128, 1024)
      (block): ModuleList(
        (0): T5Block(
          (layer): ModuleList(
            (0): T5LayerSelfAttention(
              (SelfAttention): T5Attention(
                (q): Linear(in_features=1024, out_features=1024, bias=False)
                (k): Linear(in_features=1024, out_features=1024, bias=False)
                (v): Linear(in_features=1024, out_features=1024, bias=False)
                (o): Linear(in_features=1024, out_features=1024, bias=False)
                (relative_attention_bias): Embedding(32, 16)
              )
              (layer_norm): T5LayerNorm()
              (dropout): Dropout(p=0.1, inplace=False)
            )
            (1): T5LayerCrossAttention(
              (EncDecAttention): T5Attention(
                (q): Linear(in_features=1024, out_features=1024, bias=False)
                (k): Linear(in_features=1024, out_features=1024, bias=False)
                (v): Linear(in_features=1024, out_features=1024, bias=False)
                (o): Linear(in_features=1024, out_features=1024, bias=False)
              )
              (layer_norm): T5LayerNorm()
              (dropout): Dropout(p=0.1, inplace=False)
            )
            (2): T5LayerFF(
              (DenseReluDense): T5DenseReluDense(
                (wi): Linear(in_features=1024, out_features=4096, bias=False)
                (wo): Linear(in_features=4096, out_features=1024, bias=False)
                (dropout): Dropout(p=0.1, inplace=False)
              )
              (layer_norm): T5LayerNorm()
              (dropout): Dropout(p=0.1, inplace=False)
            )
          )
        )
        (1): T5Block(
          (layer): ModuleList(
            (0): T5LayerSelfAttention(
              (SelfAttention): T5Attention(
                (q): Linear(in_features=1024, out_features=1024, bias=False)
                (k): Linear(in_features=1024, out_features=1024, bias=False)
                (v): Linear(in_features=1024, out_features=1024, bias=False)
                (o): Linear(in_features=1024, out_features=1024, bias=False)
              )
              (layer_norm): T5LayerNorm()
              (dropout): Dropout(p=0.1, inplace=False)
            )
            (1): T5LayerCrossAttention(
              (EncDecAttention): T5Attention(
                (q): Linear(in_features=1024, out_features=1024, bias=False)
                (k): Linear(in_features=1024, out_features=1024, bias=False)
                (v): Linear(in_features=1024, out_features=1024, bias=False)
                (o): Linear(in_features=1024, out_features=1024, bias=False)
              )
              (layer_norm): T5LayerNorm()
              (dropout): Dropout(p=0.1, inplace=False)
            )
            (2): T5LayerFF(
              (DenseReluDense): T5DenseReluDense(
                (wi): Linear(in_features=1024, out_features=4096, bias=False)
                (wo): Linear(in_features=4096, out_features=1024, bias=False)
                (dropout): Dropout(p=0.1, inplace=False)
              )
              (layer_norm): T5LayerNorm()
              (dropout): Dropout(p=0.1, inplace=False)
            )
          )
        )
        (2): T5Block(
          (layer): ModuleList(
            (0): T5LayerSelfAttention(
              (SelfAttention): T5Attention(
                (q): Linear(in_features=1024, out_features=1024, bias=False)
                (k): Linear(in_features=1024, out_features=1024, bias=False)
                (v): Linear(in_features=1024, out_features=1024, bias=False)
                (o): Linear(in_features=1024, out_features=1024, bias=False)
              )
              (layer_norm): T5LayerNorm()
              (dropout): Dropout(p=0.1, inplace=False)
            )
            (1): T5LayerCrossAttention(
              (EncDecAttention): T5Attention(
                (q): Linear(in_features=1024, out_features=1024, bias=False)
                (k): Linear(in_features=1024, out_features=1024, bias=False)
                (v): Linear(in_features=1024, out_features=1024, bias=False)
                (o): Linear(in_features=1024, out_features=1024, bias=False)
              )
              (layer_norm): T5LayerNorm()
              (dropout): Dropout(p=0.1, inplace=False)
            )
            (2): T5LayerFF(
              (DenseReluDense): T5DenseReluDense(
                (wi): Linear(in_features=1024, out_features=4096, bias=False)
                (wo): Linear(in_features=4096, out_features=1024, bias=False)
                (dropout): Dropout(p=0.1, inplace=False)
              )
              (layer_norm): T5LayerNorm()
              (dropout): Dropout(p=0.1, inplace=False)
            )
          )
        )
        (3): T5Block(
          (layer): ModuleList(
            (0): T5LayerSelfAttention(
              (SelfAttention): T5Attention(
                (q): Linear(in_features=1024, out_features=1024, bias=False)
                (k): Linear(in_features=1024, out_features=1024, bias=False)
                (v): Linear(in_features=1024, out_features=1024, bias=False)
                (o): Linear(in_features=1024, out_features=1024, bias=False)
              )
              (layer_norm): T5LayerNorm()
              (dropout): Dropout(p=0.1, inplace=False)
            )
            (1): T5LayerCrossAttention(
              (EncDecAttention): T5Attention(
                (q): Linear(in_features=1024, out_features=1024, bias=False)
                (k): Linear(in_features=1024, out_features=1024, bias=False)
                (v): Linear(in_features=1024, out_features=1024, bias=False)
                (o): Linear(in_features=1024, out_features=1024, bias=False)
              )
              (layer_norm): T5LayerNorm()
              (dropout): Dropout(p=0.1, inplace=False)
            )
            (2): T5LayerFF(
              (DenseReluDense): T5DenseReluDense(
                (wi): Linear(in_features=1024, out_features=4096, bias=False)
                (wo): Linear(in_features=4096, out_features=1024, bias=False)
                (dropout): Dropout(p=0.1, inplace=False)
              )
              (layer_norm): T5LayerNorm()
              (dropout): Dropout(p=0.1, inplace=False)
            )
          )
        )
        (4): T5Block(
          (layer): ModuleList(
            (0): T5LayerSelfAttention(
              (SelfAttention): T5Attention(
                (q): Linear(in_features=1024, out_features=1024, bias=False)
                (k): Linear(in_features=1024, out_features=1024, bias=False)
                (v): Linear(in_features=1024, out_features=1024, bias=False)
                (o): Linear(in_features=1024, out_features=1024, bias=False)
              )
              (layer_norm): T5LayerNorm()
              (dropout): Dropout(p=0.1, inplace=False)
            )
            (1): T5LayerCrossAttention(
              (EncDecAttention): T5Attention(
                (q): Linear(in_features=1024, out_features=1024, bias=False)
                (k): Linear(in_features=1024, out_features=1024, bias=False)
                (v): Linear(in_features=1024, out_features=1024, bias=False)
                (o): Linear(in_features=1024, out_features=1024, bias=False)
              )
              (layer_norm): T5LayerNorm()
              (dropout): Dropout(p=0.1, inplace=False)
            )
            (2): T5LayerFF(
              (DenseReluDense): T5DenseReluDense(
                (wi): Linear(in_features=1024, out_features=4096, bias=False)
                (wo): Linear(in_features=4096, out_features=1024, bias=False)
                (dropout): Dropout(p=0.1, inplace=False)
              )
              (layer_norm): T5LayerNorm()
              (dropout): Dropout(p=0.1, inplace=False)
            )
          )
        )
        (5): T5Block(
          (layer): ModuleList(
            (0): T5LayerSelfAttention(
              (SelfAttention): T5Attention(
                (q): Linear(in_features=1024, out_features=1024, bias=False)
                (k): Linear(in_features=1024, out_features=1024, bias=False)
                (v): Linear(in_features=1024, out_features=1024, bias=False)
                (o): Linear(in_features=1024, out_features=1024, bias=False)
              )
              (layer_norm): T5LayerNorm()
              (dropout): Dropout(p=0.1, inplace=False)
            )
            (1): T5LayerCrossAttention(
              (EncDecAttention): T5Attention(
                (q): Linear(in_features=1024, out_features=1024, bias=False)
                (k): Linear(in_features=1024, out_features=1024, bias=False)
                (v): Linear(in_features=1024, out_features=1024, bias=False)
                (o): Linear(in_features=1024, out_features=1024, bias=False)
              )
              (layer_norm): T5LayerNorm()
              (dropout): Dropout(p=0.1, inplace=False)
            )
            (2): T5LayerFF(
              (DenseReluDense): T5DenseReluDense(
                (wi): Linear(in_features=1024, out_features=4096, bias=False)
                (wo): Linear(in_features=4096, out_features=1024, bias=False)
                (dropout): Dropout(p=0.1, inplace=False)
              )
              (layer_norm): T5LayerNorm()
              (dropout): Dropout(p=0.1, inplace=False)
            )
          )
        )
        (6): T5Block(
          (layer): ModuleList(
            (0): T5LayerSelfAttention(
              (SelfAttention): T5Attention(
                (q): Linear(in_features=1024, out_features=1024, bias=False)
                (k): Linear(in_features=1024, out_features=1024, bias=False)
                (v): Linear(in_features=1024, out_features=1024, bias=False)
                (o): Linear(in_features=1024, out_features=1024, bias=False)
              )
              (layer_norm): T5LayerNorm()
              (dropout): Dropout(p=0.1, inplace=False)
            )
            (1): T5LayerCrossAttention(
              (EncDecAttention): T5Attention(
                (q): Linear(in_features=1024, out_features=1024, bias=False)
                (k): Linear(in_features=1024, out_features=1024, bias=False)
                (v): Linear(in_features=1024, out_features=1024, bias=False)
                (o): Linear(in_features=1024, out_features=1024, bias=False)
              )
              (layer_norm): T5LayerNorm()
              (dropout): Dropout(p=0.1, inplace=False)
            )
            (2): T5LayerFF(
              (DenseReluDense): T5DenseReluDense(
                (wi): Linear(in_features=1024, out_features=4096, bias=False)
                (wo): Linear(in_features=4096, out_features=1024, bias=False)
                (dropout): Dropout(p=0.1, inplace=False)
              )
              (layer_norm): T5LayerNorm()
              (dropout): Dropout(p=0.1, inplace=False)
            )
          )
        )
        (7): T5Block(
          (layer): ModuleList(
            (0): T5LayerSelfAttention(
              (SelfAttention): T5Attention(
                (q): Linear(in_features=1024, out_features=1024, bias=False)
                (k): Linear(in_features=1024, out_features=1024, bias=False)
                (v): Linear(in_features=1024, out_features=1024, bias=False)
                (o): Linear(in_features=1024, out_features=1024, bias=False)
              )
              (layer_norm): T5LayerNorm()
              (dropout): Dropout(p=0.1, inplace=False)
            )
            (1): T5LayerCrossAttention(
              (EncDecAttention): T5Attention(
                (q): Linear(in_features=1024, out_features=1024, bias=False)
                (k): Linear(in_features=1024, out_features=1024, bias=False)
                (v): Linear(in_features=1024, out_features=1024, bias=False)
                (o): Linear(in_features=1024, out_features=1024, bias=False)
              )
              (layer_norm): T5LayerNorm()
              (dropout): Dropout(p=0.1, inplace=False)
            )
            (2): T5LayerFF(
              (DenseReluDense): T5DenseReluDense(
                (wi): Linear(in_features=1024, out_features=4096, bias=False)
                (wo): Linear(in_features=4096, out_features=1024, bias=False)
                (dropout): Dropout(p=0.1, inplace=False)
              )
              (layer_norm): T5LayerNorm()
              (dropout): Dropout(p=0.1, inplace=False)
            )
          )
        )
        (8): T5Block(
          (layer): ModuleList(
            (0): T5LayerSelfAttention(
              (SelfAttention): T5Attention(
                (q): Linear(in_features=1024, out_features=1024, bias=False)
                (k): Linear(in_features=1024, out_features=1024, bias=False)
                (v): Linear(in_features=1024, out_features=1024, bias=False)
                (o): Linear(in_features=1024, out_features=1024, bias=False)
              )
              (layer_norm): T5LayerNorm()
              (dropout): Dropout(p=0.1, inplace=False)
            )
            (1): T5LayerCrossAttention(
              (EncDecAttention): T5Attention(
                (q): Linear(in_features=1024, out_features=1024, bias=False)
                (k): Linear(in_features=1024, out_features=1024, bias=False)
                (v): Linear(in_features=1024, out_features=1024, bias=False)
                (o): Linear(in_features=1024, out_features=1024, bias=False)
              )
              (layer_norm): T5LayerNorm()
              (dropout): Dropout(p=0.1, inplace=False)
            )
            (2): T5LayerFF(
              (DenseReluDense): T5DenseReluDense(
                (wi): Linear(in_features=1024, out_features=4096, bias=False)
                (wo): Linear(in_features=4096, out_features=1024, bias=False)
                (dropout): Dropout(p=0.1, inplace=False)
              )
              (layer_norm): T5LayerNorm()
              (dropout): Dropout(p=0.1, inplace=False)
            )
          )
        )
        (9): T5Block(
          (layer): ModuleList(
            (0): T5LayerSelfAttention(
              (SelfAttention): T5Attention(
                (q): Linear(in_features=1024, out_features=1024, bias=False)
                (k): Linear(in_features=1024, out_features=1024, bias=False)
                (v): Linear(in_features=1024, out_features=1024, bias=False)
                (o): Linear(in_features=1024, out_features=1024, bias=False)
              )
              (layer_norm): T5LayerNorm()
              (dropout): Dropout(p=0.1, inplace=False)
            )
            (1): T5LayerCrossAttention(
              (EncDecAttention): T5Attention(
                (q): Linear(in_features=1024, out_features=1024, bias=False)
                (k): Linear(in_features=1024, out_features=1024, bias=False)
                (v): Linear(in_features=1024, out_features=1024, bias=False)
                (o): Linear(in_features=1024, out_features=1024, bias=False)
              )
              (layer_norm): T5LayerNorm()
              (dropout): Dropout(p=0.1, inplace=False)
            )
            (2): T5LayerFF(
              (DenseReluDense): T5DenseReluDense(
                (wi): Linear(in_features=1024, out_features=4096, bias=False)
                (wo): Linear(in_features=4096, out_features=1024, bias=False)
                (dropout): Dropout(p=0.1, inplace=False)
              )
              (layer_norm): T5LayerNorm()
              (dropout): Dropout(p=0.1, inplace=False)
            )
          )
        )
        (10): T5Block(
          (layer): ModuleList(
            (0): T5LayerSelfAttention(
              (SelfAttention): T5Attention(
                (q): Linear(in_features=1024, out_features=1024, bias=False)
                (k): Linear(in_features=1024, out_features=1024, bias=False)
                (v): Linear(in_features=1024, out_features=1024, bias=False)
                (o): Linear(in_features=1024, out_features=1024, bias=False)
              )
              (layer_norm): T5LayerNorm()
              (dropout): Dropout(p=0.1, inplace=False)
            )
            (1): T5LayerCrossAttention(
              (EncDecAttention): T5Attention(
                (q): Linear(in_features=1024, out_features=1024, bias=False)
                (k): Linear(in_features=1024, out_features=1024, bias=False)
                (v): Linear(in_features=1024, out_features=1024, bias=False)
                (o): Linear(in_features=1024, out_features=1024, bias=False)
              )
              (layer_norm): T5LayerNorm()
              (dropout): Dropout(p=0.1, inplace=False)
            )
            (2): T5LayerFF(
              (DenseReluDense): T5DenseReluDense(
                (wi): Linear(in_features=1024, out_features=4096, bias=False)
                (wo): Linear(in_features=4096, out_features=1024, bias=False)
                (dropout): Dropout(p=0.1, inplace=False)
              )
              (layer_norm): T5LayerNorm()
              (dropout): Dropout(p=0.1, inplace=False)
            )
          )
        )
        (11): T5Block(
          (layer): ModuleList(
            (0): T5LayerSelfAttention(
              (SelfAttention): T5Attention(
                (q): Linear(in_features=1024, out_features=1024, bias=False)
                (k): Linear(in_features=1024, out_features=1024, bias=False)
                (v): Linear(in_features=1024, out_features=1024, bias=False)
                (o): Linear(in_features=1024, out_features=1024, bias=False)
              )
              (layer_norm): T5LayerNorm()
              (dropout): Dropout(p=0.1, inplace=False)
            )
            (1): T5LayerCrossAttention(
              (EncDecAttention): T5Attention(
                (q): Linear(in_features=1024, out_features=1024, bias=False)
                (k): Linear(in_features=1024, out_features=1024, bias=False)
                (v): Linear(in_features=1024, out_features=1024, bias=False)
                (o): Linear(in_features=1024, out_features=1024, bias=False)
              )
              (layer_norm): T5LayerNorm()
              (dropout): Dropout(p=0.1, inplace=False)
            )
            (2): T5LayerFF(
              (DenseReluDense): T5DenseReluDense(
                (wi): Linear(in_features=1024, out_features=4096, bias=False)
                (wo): Linear(in_features=4096, out_features=1024, bias=False)
                (dropout): Dropout(p=0.1, inplace=False)
              )
              (layer_norm): T5LayerNorm()
              (dropout): Dropout(p=0.1, inplace=False)
            )
          )
        )
        (12): T5Block(
          (layer): ModuleList(
            (0): T5LayerSelfAttention(
              (SelfAttention): T5Attention(
                (q): Linear(in_features=1024, out_features=1024, bias=False)
                (k): Linear(in_features=1024, out_features=1024, bias=False)
                (v): Linear(in_features=1024, out_features=1024, bias=False)
                (o): Linear(in_features=1024, out_features=1024, bias=False)
              )
              (layer_norm): T5LayerNorm()
              (dropout): Dropout(p=0.1, inplace=False)
            )
            (1): T5LayerCrossAttention(
              (EncDecAttention): T5Attention(
                (q): Linear(in_features=1024, out_features=1024, bias=False)
                (k): Linear(in_features=1024, out_features=1024, bias=False)
                (v): Linear(in_features=1024, out_features=1024, bias=False)
                (o): Linear(in_features=1024, out_features=1024, bias=False)
              )
              (layer_norm): T5LayerNorm()
              (dropout): Dropout(p=0.1, inplace=False)
            )
            (2): T5LayerFF(
              (DenseReluDense): T5DenseReluDense(
                (wi): Linear(in_features=1024, out_features=4096, bias=False)
                (wo): Linear(in_features=4096, out_features=1024, bias=False)
                (dropout): Dropout(p=0.1, inplace=False)
              )
              (layer_norm): T5LayerNorm()
              (dropout): Dropout(p=0.1, inplace=False)
            )
          )
        )
        (13): T5Block(
          (layer): ModuleList(
            (0): T5LayerSelfAttention(
              (SelfAttention): T5Attention(
                (q): Linear(in_features=1024, out_features=1024, bias=False)
                (k): Linear(in_features=1024, out_features=1024, bias=False)
                (v): Linear(in_features=1024, out_features=1024, bias=False)
                (o): Linear(in_features=1024, out_features=1024, bias=False)
              )
              (layer_norm): T5LayerNorm()
              (dropout): Dropout(p=0.1, inplace=False)
            )
            (1): T5LayerCrossAttention(
              (EncDecAttention): T5Attention(
                (q): Linear(in_features=1024, out_features=1024, bias=False)
                (k): Linear(in_features=1024, out_features=1024, bias=False)
                (v): Linear(in_features=1024, out_features=1024, bias=False)
                (o): Linear(in_features=1024, out_features=1024, bias=False)
              )
              (layer_norm): T5LayerNorm()
              (dropout): Dropout(p=0.1, inplace=False)
            )
            (2): T5LayerFF(
              (DenseReluDense): T5DenseReluDense(
                (wi): Linear(in_features=1024, out_features=4096, bias=False)
                (wo): Linear(in_features=4096, out_features=1024, bias=False)
                (dropout): Dropout(p=0.1, inplace=False)
              )
              (layer_norm): T5LayerNorm()
              (dropout): Dropout(p=0.1, inplace=False)
            )
          )
        )
        (14): T5Block(
          (layer): ModuleList(
            (0): T5LayerSelfAttention(
              (SelfAttention): T5Attention(
                (q): Linear(in_features=1024, out_features=1024, bias=False)
                (k): Linear(in_features=1024, out_features=1024, bias=False)
                (v): Linear(in_features=1024, out_features=1024, bias=False)
                (o): Linear(in_features=1024, out_features=1024, bias=False)
              )
              (layer_norm): T5LayerNorm()
              (dropout): Dropout(p=0.1, inplace=False)
            )
            (1): T5LayerCrossAttention(
              (EncDecAttention): T5Attention(
                (q): Linear(in_features=1024, out_features=1024, bias=False)
                (k): Linear(in_features=1024, out_features=1024, bias=False)
                (v): Linear(in_features=1024, out_features=1024, bias=False)
                (o): Linear(in_features=1024, out_features=1024, bias=False)
              )
              (layer_norm): T5LayerNorm()
              (dropout): Dropout(p=0.1, inplace=False)
            )
            (2): T5LayerFF(
              (DenseReluDense): T5DenseReluDense(
                (wi): Linear(in_features=1024, out_features=4096, bias=False)
                (wo): Linear(in_features=4096, out_features=1024, bias=False)
                (dropout): Dropout(p=0.1, inplace=False)
              )
              (layer_norm): T5LayerNorm()
              (dropout): Dropout(p=0.1, inplace=False)
            )
          )
        )
        (15): T5Block(
          (layer): ModuleList(
            (0): T5LayerSelfAttention(
              (SelfAttention): T5Attention(
                (q): Linear(in_features=1024, out_features=1024, bias=False)
                (k): Linear(in_features=1024, out_features=1024, bias=False)
                (v): Linear(in_features=1024, out_features=1024, bias=False)
                (o): Linear(in_features=1024, out_features=1024, bias=False)
              )
              (layer_norm): T5LayerNorm()
              (dropout): Dropout(p=0.1, inplace=False)
            )
            (1): T5LayerCrossAttention(
              (EncDecAttention): T5Attention(
                (q): Linear(in_features=1024, out_features=1024, bias=False)
                (k): Linear(in_features=1024, out_features=1024, bias=False)
                (v): Linear(in_features=1024, out_features=1024, bias=False)
                (o): Linear(in_features=1024, out_features=1024, bias=False)
              )
              (layer_norm): T5LayerNorm()
              (dropout): Dropout(p=0.1, inplace=False)
            )
            (2): T5LayerFF(
              (DenseReluDense): T5DenseReluDense(
                (wi): Linear(in_features=1024, out_features=4096, bias=False)
                (wo): Linear(in_features=4096, out_features=1024, bias=False)
                (dropout): Dropout(p=0.1, inplace=False)
              )
              (layer_norm): T5LayerNorm()
              (dropout): Dropout(p=0.1, inplace=False)
            )
          )
        )
        (16): T5Block(
          (layer): ModuleList(
            (0): T5LayerSelfAttention(
              (SelfAttention): T5Attention(
                (q): Linear(in_features=1024, out_features=1024, bias=False)
                (k): Linear(in_features=1024, out_features=1024, bias=False)
                (v): Linear(in_features=1024, out_features=1024, bias=False)
                (o): Linear(in_features=1024, out_features=1024, bias=False)
              )
              (layer_norm): T5LayerNorm()
              (dropout): Dropout(p=0.1, inplace=False)
            )
            (1): T5LayerCrossAttention(
              (EncDecAttention): T5Attention(
                (q): Linear(in_features=1024, out_features=1024, bias=False)
                (k): Linear(in_features=1024, out_features=1024, bias=False)
                (v): Linear(in_features=1024, out_features=1024, bias=False)
                (o): Linear(in_features=1024, out_features=1024, bias=False)
              )
              (layer_norm): T5LayerNorm()
              (dropout): Dropout(p=0.1, inplace=False)
            )
            (2): T5LayerFF(
              (DenseReluDense): T5DenseReluDense(
                (wi): Linear(in_features=1024, out_features=4096, bias=False)
                (wo): Linear(in_features=4096, out_features=1024, bias=False)
                (dropout): Dropout(p=0.1, inplace=False)
              )
              (layer_norm): T5LayerNorm()
              (dropout): Dropout(p=0.1, inplace=False)
            )
          )
        )
        (17): T5Block(
          (layer): ModuleList(
            (0): T5LayerSelfAttention(
              (SelfAttention): T5Attention(
                (q): Linear(in_features=1024, out_features=1024, bias=False)
                (k): Linear(in_features=1024, out_features=1024, bias=False)
                (v): Linear(in_features=1024, out_features=1024, bias=False)
                (o): Linear(in_features=1024, out_features=1024, bias=False)
              )
              (layer_norm): T5LayerNorm()
              (dropout): Dropout(p=0.1, inplace=False)
            )
            (1): T5LayerCrossAttention(
              (EncDecAttention): T5Attention(
                (q): Linear(in_features=1024, out_features=1024, bias=False)
                (k): Linear(in_features=1024, out_features=1024, bias=False)
                (v): Linear(in_features=1024, out_features=1024, bias=False)
                (o): Linear(in_features=1024, out_features=1024, bias=False)
              )
              (layer_norm): T5LayerNorm()
              (dropout): Dropout(p=0.1, inplace=False)
            )
            (2): T5LayerFF(
              (DenseReluDense): T5DenseReluDense(
                (wi): Linear(in_features=1024, out_features=4096, bias=False)
                (wo): Linear(in_features=4096, out_features=1024, bias=False)
                (dropout): Dropout(p=0.1, inplace=False)
              )
              (layer_norm): T5LayerNorm()
              (dropout): Dropout(p=0.1, inplace=False)
            )
          )
        )
        (18): T5Block(
          (layer): ModuleList(
            (0): T5LayerSelfAttention(
              (SelfAttention): T5Attention(
                (q): Linear(in_features=1024, out_features=1024, bias=False)
                (k): Linear(in_features=1024, out_features=1024, bias=False)
                (v): Linear(in_features=1024, out_features=1024, bias=False)
                (o): Linear(in_features=1024, out_features=1024, bias=False)
              )
              (layer_norm): T5LayerNorm()
              (dropout): Dropout(p=0.1, inplace=False)
            )
            (1): T5LayerCrossAttention(
              (EncDecAttention): T5Attention(
                (q): Linear(in_features=1024, out_features=1024, bias=False)
                (k): Linear(in_features=1024, out_features=1024, bias=False)
                (v): Linear(in_features=1024, out_features=1024, bias=False)
                (o): Linear(in_features=1024, out_features=1024, bias=False)
              )
              (layer_norm): T5LayerNorm()
              (dropout): Dropout(p=0.1, inplace=False)
            )
            (2): T5LayerFF(
              (DenseReluDense): T5DenseReluDense(
                (wi): Linear(in_features=1024, out_features=4096, bias=False)
                (wo): Linear(in_features=4096, out_features=1024, bias=False)
                (dropout): Dropout(p=0.1, inplace=False)
              )
              (layer_norm): T5LayerNorm()
              (dropout): Dropout(p=0.1, inplace=False)
            )
          )
        )
        (19): T5Block(
          (layer): ModuleList(
            (0): T5LayerSelfAttention(
              (SelfAttention): T5Attention(
                (q): Linear(in_features=1024, out_features=1024, bias=False)
                (k): Linear(in_features=1024, out_features=1024, bias=False)
                (v): Linear(in_features=1024, out_features=1024, bias=False)
                (o): Linear(in_features=1024, out_features=1024, bias=False)
              )
              (layer_norm): T5LayerNorm()
              (dropout): Dropout(p=0.1, inplace=False)
            )
            (1): T5LayerCrossAttention(
              (EncDecAttention): T5Attention(
                (q): Linear(in_features=1024, out_features=1024, bias=False)
                (k): Linear(in_features=1024, out_features=1024, bias=False)
                (v): Linear(in_features=1024, out_features=1024, bias=False)
                (o): Linear(in_features=1024, out_features=1024, bias=False)
              )
              (layer_norm): T5LayerNorm()
              (dropout): Dropout(p=0.1, inplace=False)
            )
            (2): T5LayerFF(
              (DenseReluDense): T5DenseReluDense(
                (wi): Linear(in_features=1024, out_features=4096, bias=False)
                (wo): Linear(in_features=4096, out_features=1024, bias=False)
                (dropout): Dropout(p=0.1, inplace=False)
              )
              (layer_norm): T5LayerNorm()
              (dropout): Dropout(p=0.1, inplace=False)
            )
          )
        )
        (20): T5Block(
          (layer): ModuleList(
            (0): T5LayerSelfAttention(
              (SelfAttention): T5Attention(
                (q): Linear(in_features=1024, out_features=1024, bias=False)
                (k): Linear(in_features=1024, out_features=1024, bias=False)
                (v): Linear(in_features=1024, out_features=1024, bias=False)
                (o): Linear(in_features=1024, out_features=1024, bias=False)
              )
              (layer_norm): T5LayerNorm()
              (dropout): Dropout(p=0.1, inplace=False)
            )
            (1): T5LayerCrossAttention(
              (EncDecAttention): T5Attention(
                (q): Linear(in_features=1024, out_features=1024, bias=False)
                (k): Linear(in_features=1024, out_features=1024, bias=False)
                (v): Linear(in_features=1024, out_features=1024, bias=False)
                (o): Linear(in_features=1024, out_features=1024, bias=False)
              )
              (layer_norm): T5LayerNorm()
              (dropout): Dropout(p=0.1, inplace=False)
            )
            (2): T5LayerFF(
              (DenseReluDense): T5DenseReluDense(
                (wi): Linear(in_features=1024, out_features=4096, bias=False)
                (wo): Linear(in_features=4096, out_features=1024, bias=False)
                (dropout): Dropout(p=0.1, inplace=False)
              )
              (layer_norm): T5LayerNorm()
              (dropout): Dropout(p=0.1, inplace=False)
            )
          )
        )
        (21): T5Block(
          (layer): ModuleList(
            (0): T5LayerSelfAttention(
              (SelfAttention): T5Attention(
                (q): Linear(in_features=1024, out_features=1024, bias=False)
                (k): Linear(in_features=1024, out_features=1024, bias=False)
                (v): Linear(in_features=1024, out_features=1024, bias=False)
                (o): Linear(in_features=1024, out_features=1024, bias=False)
              )
              (layer_norm): T5LayerNorm()
              (dropout): Dropout(p=0.1, inplace=False)
            )
            (1): T5LayerCrossAttention(
              (EncDecAttention): T5Attention(
                (q): Linear(in_features=1024, out_features=1024, bias=False)
                (k): Linear(in_features=1024, out_features=1024, bias=False)
                (v): Linear(in_features=1024, out_features=1024, bias=False)
                (o): Linear(in_features=1024, out_features=1024, bias=False)
              )
              (layer_norm): T5LayerNorm()
              (dropout): Dropout(p=0.1, inplace=False)
            )
            (2): T5LayerFF(
              (DenseReluDense): T5DenseReluDense(
                (wi): Linear(in_features=1024, out_features=4096, bias=False)
                (wo): Linear(in_features=4096, out_features=1024, bias=False)
                (dropout): Dropout(p=0.1, inplace=False)
              )
              (layer_norm): T5LayerNorm()
              (dropout): Dropout(p=0.1, inplace=False)
            )
          )
        )
        (22): T5Block(
          (layer): ModuleList(
            (0): T5LayerSelfAttention(
              (SelfAttention): T5Attention(
                (q): Linear(in_features=1024, out_features=1024, bias=False)
                (k): Linear(in_features=1024, out_features=1024, bias=False)
                (v): Linear(in_features=1024, out_features=1024, bias=False)
                (o): Linear(in_features=1024, out_features=1024, bias=False)
              )
              (layer_norm): T5LayerNorm()
              (dropout): Dropout(p=0.1, inplace=False)
            )
            (1): T5LayerCrossAttention(
              (EncDecAttention): T5Attention(
                (q): Linear(in_features=1024, out_features=1024, bias=False)
                (k): Linear(in_features=1024, out_features=1024, bias=False)
                (v): Linear(in_features=1024, out_features=1024, bias=False)
                (o): Linear(in_features=1024, out_features=1024, bias=False)
              )
              (layer_norm): T5LayerNorm()
              (dropout): Dropout(p=0.1, inplace=False)
            )
            (2): T5LayerFF(
              (DenseReluDense): T5DenseReluDense(
                (wi): Linear(in_features=1024, out_features=4096, bias=False)
                (wo): Linear(in_features=4096, out_features=1024, bias=False)
                (dropout): Dropout(p=0.1, inplace=False)
              )
              (layer_norm): T5LayerNorm()
              (dropout): Dropout(p=0.1, inplace=False)
            )
          )
        )
        (23): T5Block(
          (layer): ModuleList(
            (0): T5LayerSelfAttention(
              (SelfAttention): T5Attention(
                (q): Linear(in_features=1024, out_features=1024, bias=False)
                (k): Linear(in_features=1024, out_features=1024, bias=False)
                (v): Linear(in_features=1024, out_features=1024, bias=False)
                (o): Linear(in_features=1024, out_features=1024, bias=False)
              )
              (layer_norm): T5LayerNorm()
              (dropout): Dropout(p=0.1, inplace=False)
            )
            (1): T5LayerCrossAttention(
              (EncDecAttention): T5Attention(
                (q): Linear(in_features=1024, out_features=1024, bias=False)
                (k): Linear(in_features=1024, out_features=1024, bias=False)
                (v): Linear(in_features=1024, out_features=1024, bias=False)
                (o): Linear(in_features=1024, out_features=1024, bias=False)
              )
              (layer_norm): T5LayerNorm()
              (dropout): Dropout(p=0.1, inplace=False)
            )
            (2): T5LayerFF(
              (DenseReluDense): T5DenseReluDense(
                (wi): Linear(in_features=1024, out_features=4096, bias=False)
                (wo): Linear(in_features=4096, out_features=1024, bias=False)
                (dropout): Dropout(p=0.1, inplace=False)
              )
              (layer_norm): T5LayerNorm()
              (dropout): Dropout(p=0.1, inplace=False)
            )
          )
        )
      )
      (final_layer_norm): T5LayerNorm()
      (dropout): Dropout(p=0.1, inplace=False)
    )
    (lm_head): Linear(in_features=1024, out_features=32128, bias=False)
  )
)  0%|          | 0/100 [00:00<?, ?it/s]
  1%|          | 1/100 [00:00<01:09,  1.42it/s]  2%|         | 2/100 [00:01<01:01,  1.60it/s]  3%|         | 3/100 [00:01<00:54,  1.77it/s]  4%|         | 4/100 [00:01<00:48,  1.99it/s]  5%|         | 5/100 [00:02<00:43,  2.18it/s]  6%|         | 6/100 [00:02<00:47,  1.98it/s]  7%|         | 7/10
…
